…
cfg.MODEL.EdgeAttentionNet.LossWeight = edict()
2024-11-17 15:11:17,596   INFO  cfg.MODEL.EdgeAttentionNet.LossWeight.cls_weight: 1.0
2024-11-17 15:11:17,596   INFO  cfg.ROOT_DIR: /data/haoran/Point2Roof
2024-11-17 15:11:17,597   INFO  Total samples: 1600
2024-11-17 15:11:17,765   INFO  **********************Start testing**********************
2024-11-17 15:11:17,765   INFO  RoofNet(
  (keypoint_det_net): PointNet2(
    (sa1): PointNetSAModule(
      (groupers): ModuleList(
        (0): QueryAndGroup()
      )
      (mlps): ModuleList(
        (0): Conv2ds(
          (conv1): Conv2dBN(
            (bn): BatchNorm2d(32, eps=1e-05, momentum=0.1, affine=True, track_running_stats=True)
            (conv): Conv2d(6, 32, kernel_size=(1, 1), stride=(1, 1))
          )
          (conv2): Conv2dBN(
            (bn): BatchNorm2d(32, eps=1e-05, momentum=0.1, affine=True, track_running_stats=True)
            (conv): Conv2d(32, 32, kernel_size=(1, 1), stride=(1, 1))
          )
          (conv3): Conv2dBN(
            (bn): BatchNorm2d(64, eps=1e-05, momentum=0.1, affine=True, track_running_stats=True)
            (conv): Conv2d(32, 64, kernel_size=(1, 1), stride=(1, 1))
          )
        )
      )
    )
    (sa2): PointNetSAModule(
      (groupers): ModuleList(
        (0): QueryAndGroup()
      )
      (mlps): ModuleList(
        (0): Conv2ds(
          (conv1): Conv2dBN(
            (bn): BatchNorm2d(64, eps=1e-05, momentum=0.1, affine=True, track_running_stats=True)
            (conv): Conv2d(67, 64, kernel_size=(1, 1), stride=(1, 1))
          )
          (conv2): Conv2dBN(
            (bn): BatchNorm2d(64, eps=1e-05, momentum=0.1, affine=True, track_running_stats=True)
            (conv): Conv2d(64, 64, kernel_size=(1, 1), stride=(1, 1))
          )
          (conv3): Conv2dBN(
            (bn): BatchNorm2d(128, eps=1e-05, momentum=0.1, affine=True, track_running_stats=True)
            (conv): Conv2d(64, 128, kernel_size=(1, 1), stride=(1, 1))
          )
        )
      )
    )
    (sa3): PointNetSAModule(
      (groupers): ModuleList(
        (0): QueryAndGroup()
      )
      (mlps): ModuleList(
        (0): Conv2ds(
          (conv1): Conv2dBN(
            (bn): BatchNorm2d(128, eps=1e-05, momentum=0.1, affine=True, track_running_stats=True)
            (conv): Conv2d(131, 128, kernel_size=(1, 1), stride=(1, 1))
          )
          (conv2): Conv2dBN(
            (bn): BatchNorm2d(128, eps=1e-05, momentum=0.1, affine=True, track_running_stats=True)
            (conv): Conv2d(128, 128, kernel_size=(1, 1), stride=(1, 1))
          )
          (conv3): Conv2dBN(
            (bn): BatchNorm2d(256, eps=1e-05, momentum=0.1, affine=True, track_running_stats=True)
            (conv): Conv2d(128, 256, kernel_size=(1, 1), stride=(1, 1))
          )
        )
      )
    )
    (sa4): PointNetSAModule(
      (groupers): ModuleList(
        (0): QueryAndGroup()
      )
      (mlps): ModuleList(
        (0): Conv2ds(
          (conv1): Conv2dBN(
            (bn): BatchNorm2d(256, eps=1e-05, momentum=0.1, affine=True, track_running_stats=True)
            (conv): Conv2d(259, 256, kernel_size=(1, 1), stride=(1, 1))
          )
          (conv2): Conv2dBN(
            (bn): BatchNorm2d(256, eps=1e-05, momentum=0.1, affine=True, track_running_stats=True)
            (conv): Conv2d(256, 256, kernel_size=(1, 1), stride=(1, 1))
          )
          (conv3): Conv2dBN(
            (bn): BatchNorm2d(512, eps=1e-05, momentum=0.1, affine=True, track_running_stats=True)
            (conv): Conv2d(256, 512, kernel_size=(1, 1), stride=(1, 1))
          )
        )
      )
    )
    (fp4): PointNetFPModule(
      (mlp): Conv2ds(
        (conv1): Conv2dBN(
          (bn): BatchNorm2d(256, eps=1e-05, momentum=0.1, affine=True, track_running_stats=True)
          (conv): Conv2d(768, 256, kernel_size=(1, 1), stride=(1, 1))
        )
        (conv2): Conv2dBN(
          (bn): BatchNorm2d(256, eps=1e-05, momentum=0.1, affine=True, track_running_stats=True)
          (conv): Conv2d(256, 256, kernel_size=(1, 1), stride=(1, 1))
        )
      )
    )
    (fp3): PointNetFPModule(
      (mlp): Conv2ds(
        (conv1): Conv2dBN(
          (bn): BatchNorm2d(256, eps=1e-05, momentum=0.1, affine=True, track_running_stats=True)
          (conv): Conv2d(384, 256, kernel_size=(1, 1), stride=(1, 1))
        )
        (conv2): Conv2dBN(
          (bn): BatchNorm2d(256, eps=1e-05, momentum=0.1, affine=True, track_running_stats=True)
          (conv): Conv2d(256, 256, kernel_size=(1, 1), stride=(1, 1))
        )
      )
    )
    (fp2): PointNetFPModule(
      (mlp): Conv2ds(
        (conv1): Conv2dBN(
          (bn): BatchNorm2d(256, eps=1e-05, momentum=0.1, affine=True, track_running_stats=True)
          (conv): Conv2d(320, 256, kernel_size=(1, 1), stride=(1, 1))
        )
        (conv2): Conv2dBN(
          (bn): BatchNorm2d(128, eps=1e-05, momentum=0.1, affine=True, track_running_stats=True)
          (conv): Conv2d(256, 128, kernel_size=(1, 1), stride=(1, 1))
        )
      )
    )
    (fp1): PointNetFPModule(
      (mlp): Conv2ds(
        (conv1): Conv2dBN(
          (bn): BatchNorm2d(128, eps=1e-05, momentum=0.1, affine=True, track_running_stats=True)
          (conv): Conv2d(128, 128, kernel_size=(1, 1), stride=(1, 1))
        )
        (conv2): Conv2dBN(
          (bn): BatchNorm2d(128, eps=1e-05, momentum=0.1, affine=True, track_running_stats=True)
          (conv): Conv2d(128, 128, kernel_size=(1, 1), stride=(1, 1))
        )
        (conv3): Conv2dBN(
          (bn): BatchNorm2d(128, eps=1e-05, momentum=0.1, affine=True, track_running_stats=True)
          (conv): Conv2d(128, 128, kernel_size=(1, 1), stride=(1, 1))
        )
      )
    )
    (shared_fc): Conv1dBN(
      (bn): BatchNorm1d(128, eps=1e-05, momentum=0.1, affine=True, track_running_stats=True)
      (conv): Conv1d(128, 128, kernel_size=(1,), stride=(1,))
    )
    (drop): Dropout(p=0.5, inplace=False)
    (offset_fc): Conv1d(128, 3, kernel_size=(1,), stride=(1,))
    (cls_fc): Conv1d(128, 1, kernel_size=(1,), stride=(1,))
    (cls_loss_func): SigmoidBCELoss()
    (reg_loss_func): WeightedSmoothL1Loss()
  )
  (cluster_refine_net): ClusterRefineNet(
    (matcher): HungarianMatcher()
    (fea_refine_module): StackSAModuleMSG(
      (groupers): ModuleList(
        (0-1): 2 x QueryAndGroup()
      )
      (mlps): ModuleList(
        (0-1): 2 x Sequential(
          (0): Conv2d(131, 128, kernel_size=(1, 1), stride=(1, 1), bias=False)
          (1): BatchNorm2d(128, eps=1e-05, momentum=0.1, affine=True, track_running_stats=True)
          (2): ReLU()
          (3): Conv2d(128, 128, kernel_size=(1, 1), stride=(1, 1), bias=False)
          (4): BatchNorm2d(128, eps=1e-05, momentum=0.1, affine=True, track_running_stats=True)
          (5): ReLU()
        )
      )
    )
    (shared_fc): LinearBN(
      (bn): BatchNorm1d(128, eps=1e-05, momentum=0.1, affine=True, track_running_stats=True)
      (conv): Linear(in_features=256, out_features=128, bias=True)
    )
    (drop): Dropout(p=0.5, inplace=False)
    (offset_fc): Linear(in_features=128, out_features=3, bias=True)
    (reg_loss_func): WeightedSmoothL1Loss()
  )
  (edge_att_net): EdgeAttentionNet(
    (att_layer): PairedPointAttention(
      (edge_att1): Sequential(
        (0): Linear(in_features=256, out_features=256, bias=True)
        (1): BatchNorm1d(256, eps=1e-05, momentum=0.1, affine=True, track_running_stats=True)
        (2): ReLU()
        (3): Linear(in_features=256, out_features=256, bias=True)
        (4): Sigmoid()
      )
      (edge_att2): Sequential(
        (0): Linear(in_features=256, out_features=256, bias=True)
        (1): BatchNorm1d(256, eps=1e-05, momentum=0.1, affine=True, track_running_stats=True)
        (2): ReLU()
        (3): Linear(in_features=256, out_features=256, bias=True)
        (4): Sigmoid()
      )
      (fea_fusion_layer): MaxPool1d(kernel_size=2, stride=2, padding=0, dilation=1, ceil_mode=False)
    )
    (shared_fc): LinearBN(
      (bn): BatchNorm1d(256, eps=1e-05, momentum=0.1, affine=True, track_running_stats=True)
      (conv): Linear(in_features=256, out_features=256, bias=True)
    )
    (drop): Dropout(p=0.5, inplace=False)
    (cls_fc): Linear(in_features=256, out_features=1, bias=True)
    (cls_loss_func): SigmoidBCELoss()
  )
)
2024-11-17 15:15:35,761   INFO  **********************Start logging**********************
2024-11-17 15:15:35,762   INFO  data_path        /data/haoran/dataset/RoofReconstructionDataset/SyntheticDataset
2024-11-17 15:15:35,762   INFO  cfg_file         ./model_cfg.yaml
2024-11-17 15:15:35,762   INFO  batch_size       1
…
